tiny_dnn_model_quant.tflite (tflite, 12768 bytes, 5 tensors)

arith.constant f4 [64]
00000000: 8a40 733e 1895 093f bf76 f63e b6e9 013f
00000010: ff60 f93e ea71 103e 76a5 fe3e 82ac 993d
00000020: 2001 0d3f 67bd a63e f064 653c 8274 b63e
00000030: 3d11 0c3f f327 c43e b749 0fbe 922a 1d3e
00000040: aa2c d03e da93 5f3e 16e2 bc3e a72a c53e
00000050: c9f1 ac3e 068e 25be e8b1 f73e 62ab b5b9
00000060: 2eae 253e 8396 723e b7dc e13e 7cc8 cc3e
00000070: f51d e33e 5bb4 fd3e 5623 c63e 3d34 e43e
00000080: 71a0 423e 212f bb3e 2bd5 393e ae5c 793d
00000090: 805a a7bd 72cb d53e ba17 503e 0313 003f
000000a0: 774c 1a3f 6316 863e 2cae d5ba ff1d 113f
000000b0: cf04 d53e 87c5 273e 7bba 303f b5bb ec3e
000000c0: 368b f33e abb7 0f3f af37 0f3f ec74 e23e
000000d0: 547b c63a f829 df3e 7e20 ab3e 3210 083f
000000e0: 5a64 973e f0ea de3e 6e2f 193d a8b7 8d3e
000000f0: 723a 0b3d 8bce df3e 88b3 223f 6273 6c3e
0.23755088 0.53743124 0.4813747 0.5074724 0.48706815 0.14105955 0.49735612 0.075036064
0.5507984 0.32566378 0.014001116 0.35635763 0.54713804 0.3831173 -0.13992964 0.1534827
0.40659076 0.21833745 0.3689124 0.38509104 0.33778217 -0.16167459 0.4837792 -0.000346507
0.16179726 0.23690228 0.44113705 0.39996707 0.44358793 0.49551663 0.38698834 0.44571105
0.19006516 0.36559394 0.18147723 0.0608794 -0.081715584 0.4175678 0.20321551 0.5002901
0.60272926 0.26188955 -0.0016302518 0.56686395 0.4160523 0.16383944 0.69034547 0.4623696
0.47567147 0.5613963 0.5594434 0.4422983 0.0015142956 0.43586707 0.33423227 0.5314971
0.2956875 0.43538618 0.037398748 0.2767918 0.033991285 0.43712267 0.6355519 0.2309089

arith.constant1 f4 [32]
00000000: ff57 233f 2efe c93d 2abd 463f 0bc4 103f
00000010: a545 153f 508c 083f 631d 2d3e 427a 173f
00000020: d9c8 0e3e 9ecb 1b3f fa0d a43d c7b1 25be
00000030: 98e6 c03c 02c6 1e3f 9edb 1a3f 0366 753e
00000040: 5b22 193f 60a8 603c 65a7 723d aff5 02be
00000050: 69e1 a4bd f51a 34bc c2db 683e 91d8 183f
00000060: 1a83 453d b0e7 103c 7811 1c3f e186 153e
00000070: 4060 1a3f e56c 79be 157e 7e3d 4a9a 5dbe
0.63806146 0.09862934 0.7763239 0.5654914 0.58309394 0.533391 0.16905741 0.59170926
0.13943805 0.6085757 0.08010478 -0.16181098 0.023547456 0.62020886 0.6049136 0.23964696
0.5981805 0.013712019 0.05924167 -0.12789033 -0.08050806 -0.010992755 0.22740081 0.59705454
0.04822073 0.008844301 0.60964155 0.14602233 0.60303116 -0.24357946 0.06213196 -0.21640888

arith.constant3 f4 [1, 32]
00000000: d7ae 893d c487 38bf 848c cb3d 26ae c13e
00000010: 4b7e ae3e f6b0 c63e 6782 83bf ffc3 2e3e
00000020: 62ca 2fbf 0a2a c53e 98fa 89bf 1ac9 f3be
00000030: a4b9 71bf 44bd 763e f2bf 9f3d e46a 17bf
00000040: f9a2 723e ea15 47bf 4c90 8fbf f3a4 debe
00000050: 368f 1dbf a1ea 78bf 8fa0 a1bf e971 313e
00000060: 2156 63bf 16bd bd3e a5dd e23d 6725 acbf
00000070: 016d 283e fe13 e9be 4126 6fbf 4610 9ebe
0.06722801 -0.7208216 0.099389106 0.37828177 0.3408073 0.38806885 -1.0274171 0.17066954
-0.68668187 0.38508636 -1.07796 -0.47614366 -0.9442389 0.24095637 0.078002825 -0.5914748
0.23694982 -0.77767813 -1.1215911 -0.4348522 -0.6154665 -0.97233015 -1.2627124 0.1732861
-0.888033 0.37058324 0.110774316 -1.3448914 0.16447832 -0.45523065 -0.93417746 -0.3087179

tfl.pseudo_qconst i1 [32, 64]
00000000: e6e1 f926 eb70 dcbe 5664 d9ba e814 9452
00000010: 4b10 1339 3b1d 5768 e64a f302 3f57 de74
00000020: fd37 2939 32f2 0917 284e 3862 cbf6 1901
00000030: 180f 21ee 4039 27d9 f529 71f7 7f34 3406
00000040: d9e9 f426 dfb0 fe14 2eeb fdce 0930 e700
00000050: e905 bcb7 09ee 170e d2e6 3197 2be3 29e3
00000060: c00b 81e7 c021 03e3 f12f 06fe be9f 0b9e
00000070: f62d 233f 110d c607 20e9 1716 fbdc 09d7
00000080: d31f 3dd9 e572 240f e812 5be9 6d4a 8513
00000090: 31d1 c8ce 60d7 101f fcff f83f 1308 ae30
000000a0: da56 dfdb 2d02 d6f2 db17 634e fd53 0ccc
000000b0: 6fca 51f0 3cc8 47fd 1d45 2353 7f42 21db
000000c0: 4341 f159 f005 f036 0bf6 da18 e126 8119
000000d0: fbd3 3426 21e1 200a 4bd8 dc45 f444 0f45
000000e0: 3b64 ee1d 183e 1deb 21fe e653 2b02 2508
000000f0: 0b2f fe39 3553 2f21 0004 365e 40f7 1f25
-26 -31 -7 38 -21 112 -36 -66
86 100 -39 -70 -24 20 -108 82
75 16 19 57 59 29 87 104
-26 74 -13 2 63 87 -34 116
-3 55 41 57 50 -14 9 23
40 78 56 98 -53 -10 25 1
24 15 33 -18 64 57 39 -39
-11 41 113 -9 127 52 52 6
-39 -23 -12 38 -33 -80 -2 20
46 -21 -3 -50 9 48 -25 0
-23 5 -68 -73 9 -18 23 14
-46 -26 49 -105 43 -29 41 -29
-64 11 -127 -25 -64 33 3 -29
-15 47 6 -2 -66 -97 11 -98
-10 45 35 63 17 13 -58 7
32 -23 23 22 -5 -36 9 -41
-45 31 61 -39 -27 114 36 15
-24 18 91 -23 109 74 -123 19
49 -47 -56 -50 96 -41 16 31
-4 -1 -8 63 19 8 -82 48
-38 86 -33 -37 45 2 -42 -14
-37 23 99 78 -3 83 12 -52
111 -54 81 -16 60 -56 71 -3
29 69 35 83 127 66 33 -37
67 65 -15 89 -16 5 -16 54
11 -10 -38 24 -31 38 -127 25
-5 -45 52 38 33 -31 32 10
75 -40 -36 69 -12 68 15 69
59 100 -18 29 24 62 29 -21
33 -2 -26 83 43 2 37 8
11 47 -2 57 53 83 47 33
0 4 54 94 64 -9 31 37

sequential_1_1/dense_3_1/MatMul i1 [64, 111]
00000000: 0bf8 1ae1 0fc4 bef7 fc29 c730 1303 31fd
00000010: b91b 073b b010 ddfa 031b dd28 160a 0409
00000020: e431 3be7 81fc 1ddf 1213 2818 d815 1840
00000030: 0b1e 0dcd 2415 1209 1f51 13fd fc4c e024
00000040: 1f1c bd09 1bf1 17da 0003 2d0e f6e0 cdf4
00000050: ebf2 f5f5 f5f9 1d0d 09c1 e714 0de8 260c
00000060: ed25 10aa e606 0236 0bf8 04ce 23fa 1a1b
00000070: 00ce 3b7f fd22 42f8 0124 a0f2 f107 d9fc
00000080: faf5 d09d fa08 03e3 d4b1 17ac 0cf7 de07
00000090: f5dc ad14 1ec2 1006 eff1 eebe 0af5 fccd
000000a0: d7fe dfd7 9ecc f6e1 3592 efe3 e0e5 f245
000000b0: c8ef d1e8 eb3c 2503 cdde ecc6 ecc7 f5f5
000000c0: f11a fb36 fad3 f1bd a1d1 f000 dae2 ecb9
000000d0: 03bd e9e3 e42a edcd 1412 0ad9 1e09 0019
000000e0: 07d1 2cfc f2ec e8f7 e733 00f3 0ef9 e221
000000f0: 18fc f5d1 e105 0cfa ede8 fece 0215 38e8
11 -8 26 -31 15 -60 -66 -9
-4 41 -57 48 19 3 49 -3
-71 27 7 59 -80 16 -35 -6
3 27 -35 40 22 10 4 9
-28 49 59 -25 -127 -4 29 -33
18 19 40 24 -40 21 24 64
11 30 13 -51 36 21 18 9
31 81 19 -3 -4 76 -32 36
31 28 -67 9 27 -15 23 -38
0 3 45 14 -10 -32 -51 -12
-21 -14 -11 -11 -11 -7 29 13
9 -63 -25 20 13 -24 38 12
-19 37 16 -86 -26 6 2 54
11 -8 4 -50 35 -6 26 27
0 -50 59 127 -3 34 66 -8
1 36 -96 -14 -15 7 -39 -4
-6 -11 -48 -99 -6 8 3 -29
-44 -79 23 -84 12 -9 -34 7
-11 -36 -83 20 30 -62 16 6
-17 -15 -18 -66 10 -11 -4 -51
-41 -2 -33 -41 -98 -52 -10 -31
53 -110 -17 -29 -32 -27 -14 69
-56 -17 -47 -24 -21 60 37 3
-51 -34 -20 -58 -20 -57 -11 -11
-15 26 -5 54 -6 -45 -15 -67
-95 -47 -16 0 -38 -30 -20 -71
3 -67 -23 -29 -28 42 -19 -51
20 18 10 -39 30 9 0 25
7 -47 44 -4 -14 -20 -24 -9
-25 51 0 -13 14 -7 -30 33
24 -4 -11 -47 -31 5 12 -6
-19 -24 -2 -50 2 21 56 -24
