tiny_dnn_model.tflite (tflite, 39004 bytes, 5 tensors)

arith.constant f4 [1, 32]
0	0x3d89aed7	0.06722801
1	0xbf3887c4	-0.7208216
2	0x3dcb8c84	0.099389106
3	0x3ec1ae26	0.37828177
4	0x3eae7e4b	0.3408073
5	0x3ec6b0f6	0.38806885
6	0xbf838267	-1.0274171
7	0x3e2ec3ff	0.17066954
8	0xbf2fca62	-0.68668187
9	0x3ec52a0a	0.38508636
10	0xbf89fa98	-1.07796
11	0xbef3c91a	-0.47614366
12	0xbf71b9a4	-0.9442389
13	0x3e76bd44	0.24095637
14	0x3d9fbff2	0.078002825
15	0xbf176ae4	-0.5914748
16	0x3e72a2f9	0.23694982
17	0xbf4715ea	-0.77767813
18	0xbf8f904c	-1.1215911
19	0xbedea4f3	-0.4348522
20	0xbf1d8f36	-0.6154665
21	0xbf78eaa1	-0.97233015
22	0xbfa1a08f	-1.2627124
23	0x3e3171e9	0.1732861
24	0xbf635621	-0.888033
25	0x3ebdbd16	0.37058324
26	0x3de2dda5	0.110774316
27	0xbfac2567	-1.3448914
28	0x3e286d01	0.16447832
29	0xbee913fe	-0.45523065
30	0xbf6f2641	-0.93417746
31	0xbe9e1046	-0.3087179

arith.constant1 f4 [32, 64]
0	0xbd98d220	-0.07461953
1	0xbdb5e396	-0.08881299
2	0xbca2c7ea	-0.019870717
3	0x3ddd8510	0.10816395
4	0xbd78b799	-0.060721967
5	0x3ea4d9b9	0.3219736
6	0xbdd1515b	-0.102205954
7	0xbe42a9ff	-0.19010161
8	0x3e7d7de6	0.24755058
9	0x3e934b77	0.28768513
10	0xbde588f3	-0.112077616
11	0xbe4dc047	-0.20092879
12	0xbd8c0bc9	-0.06838185
13	0x3d6f8833	0.0584795
14	0xbe9ee7b3	-0.31036147
15	0x3e70e9da	0.23526707
16	0x3e5d0588	0.21584141
17	0x3d3a2cf1	0.045453016
18	0x3d5d1742	0.05397726
19	0x3e28cafa	0.1648368
20	0x3e2c9080	0.16851997
21	0x3da986c4	0.08277658
22	0x3e804d07	0.25058767
23	0x3e99849b	0.29983982
24	0xbd9bb9d6	-0.07603805
25	0x3e59fb02	0.21287158
26	0xbd151a3c	-0.036401972
27	0x3b94e2b8	0.0045436285
28	0x3e3ad861	0.18246605
29	0x3e7ed352	0.248853
30	0xbdc56470	-0.096382976
31	0x3eaaed51	0.33384183
32	0xbbff36f1	-0.007788532
33	0x3e232b4a	0.15934482
34	0x3def631f	0.11688828
35	0x3e274fb4	0.16338998
36	0x3e12b280	0.14325905
37	0xbd1f5741	-0.03890157
38	0x3ccb6af4	0.024831273
39	0x3d87c828	0.06629974
40	0x3dede7ea	0.116165
41	0x3e65b649	0.22432818
42	0x3e24f511	0.1610911
43	0x3e9007e9	0.28131035
44	0xbe1b2937	-0.15152441
45	0xbcf3a438	-0.029741392
46	0x3d9336ef	0.07188212
47	0x3b696397	0.0035612339
48	0x3d8c00ac	0.06836066
49	0x3d2bc54e	0.04193621
50	0x3dc19b95	0.09453503
51	0xbd5995b4	-0.053121284
52	0x3e3c7eef	0.18407796
53	0x3e279c8e	0.16368315
54	0x3de595ab	0.112101875
55	0xbde3f3df	-0.11130499
56	0xbcfd56d1	-0.030925186
57	0x3defa6f2	0.11701764
58	0x3ea62ae1	0.3245459
59	0xbcd02a1d	-0.025410706
60	0x3ebae812	0.3650518
61	0x3e1a7df6	0.15087113
62	0x3e17ec76	0.14836296
63	0x3c8664e7	0.016405536
64	0xbe7a5fa0	-0.2445054
65	0xbe177501	-0.14790727
66	0xbd9b5a65	-0.07585601
67	0x3e7631d9	0.24042453
68	0xbe52defa	-0.20592871
69	0xbf01af73	-0.5065834
70	0xbc39cdf3	-0.011340606
71	0x3dfe99e6	0.124316975
72	0x3e936efa	0.28795606
73	0xbe057938	-0.13034523
74	0xbc8d8c74	-0.017278887
75	0xbea0f583	-0.3143731
76	0x3d6ef55d	0.058339465
77	0x3e99a4c1	0.3000851
78	0xbe22fd56	-0.15916952
79	0x3b2c5778	0.0026297253
80	0xbe13289c	-0.1437096
81	0x3d0a558f	0.033773
82	0xbedb7586	-0.428631
83	0xbeec0a1b	-0.4610146
84	0x3d66ef4c	0.056380555
85	0xbdee83a9	-0.11646206
86	0x3e1648d7	0.14676224
87	0x3db04fd4	0.08608976
88	0xbe933c2b	-0.28756842
89	0xbe297d80	-0.1655178
90	0x3e9f5d43	0.3112584
91	0xbf292f97	-0.6608824
92	0x3e8b5b26	0.27217978
93	0xbe3a96d5	-0.182216
94	0x3e844877	0.25836536
95	0xbe3df5b5	-0.18550761
96	0xbecfe1f0	-0.40602064
97	0x3d8cfdaf	0.06884324
98	0xbf4d07b5	-0.80089885
99	0xbe22ac0d	-0.15885945
100	0xbecd5687	-0.40105078
101	0x3e56b949	0.20969118
102	0x3ca17ddc	0.019713335
103	0xbe3cbcf5	-0.18431456
104	0xbdc15adf	-0.094411604
105	0x3e9914d7	0.29898712
106	0x3d1d36b1	0.038382236
107	0xbc56443b	-0.013077791
108	0xbed4cd99	-0.4156311
109	0xbf1d38ce	-0.614148
110	0x3d87ab1a	0.06624432
111	0xbf1e16b3	-0.61753386
112	0xbd847468	-0.06467515
113	0x3e928140	0.28614235
114	0x3e601093	0.21881323
115	0x3ecd04ab	0.40042624
116	0x3ddd3e0b	0.108028494
117	0x3da34ff4	0.07974234
118	0xbeb9d21b	-0.3629311
119	0x3d36098e	0.044442706
120	0x3e4feeb4	0.20305902
121	0xbe13c47d	-0.14430423
122	0x3e1435ca	0.14473644
123	0x3e10b1f7	0.14130388
124	0xbcef50e0	-0.029213369
125	0xbe691ea4	-0.22765595
126	0x3d606931	0.05478782
127	0xbe84b3b1	-0.25918344
128	0xbe126eae	-0.14300033
129	0x3dc66b26	0.09688406
130	0x3e457d0c	0.19285983
131	0xbdf97465	-0.121804036
132	0xbdaf35c3	-0.08555176
133	0x3eb7f688	0.35930276
134	0x3de748eb	0.11293205
135	0x3d3cb819	0.046074007
136	0xbd9aa228	-0.0755046
137	0x3d6db9ce	0.058038525
138	0x3e932101	0.28736117
139	0xbd96c79d	-0.07362292
140	0x3eb0787f	0.3446693
141	0x3e6fbc10	0.23411584
142	0xbec6d75f	-0.3883619
143	0x3d74f8e1	0.059807662
144	0x3e1fbd5a	0.15599576
145	0xbe1944bd	-0.14967628
146	0xbe360c21	-0.17778064
147	0xbe22a71b	-0.15884058
148	0x3e9a5a00	0.3014679
149	0xbe02e884	-0.1278401
150	0x3d4a25a9	0.04935232
151	0x3dc50bd6	0.09621398
152	0xbc54d280	-0.01298964
153	0xbb04e2d5	-0.0020276804
154	0xbcda63f6	-0.026658993
155	0x3e4cc8cf	0.19998477
156	0x3d75c7f2	0.060005136
157	0x3cc2489f	0.023716269
158	0xbe84dd9a	-0.2595032
159	0x3e19bd13	0.15013532
160	0xbdf58860	-0.11988902
161	0x3e8b523c	0.27211177
162	0xbdd2b3ca	-0.10288198
163	0xbdf134cb	-0.117776476
164	0x3e106235	0.14099963
165	0x3bbd5364	0.005777763
166	0xbe072543	-0.13197808
167	0xbd316760	-0.043311477
168	0xbdef2ebc	-0.11678836
169	0x3d93fece	0.072263345
170	0x3e9f660c	0.31132543
171	0x3e7a7488	0.24458516
172	0xbc06a53d	-0.008218107
173	0x3e8576e7	0.26067278
174	0x3d19cd7d	0.037549485
175	0xbe2832e4	-0.16425663
176	0x3eb2b29a	0.34901887
177	0xbe2f2e0b	-0.17107408
178	0x3e81fe8d	0.2538952
179	0xbd4c5f0b	-0.049895328
180	0x3e41f081	0.18939401
181	0xbe33928d	-0.17536373
182	0x3e6608bc	0.2246427
183	0xbc093353	-0.008374053
184	0x3dbe27a7	0.09284907
185	0x3e5dc312	0.21656445
186	0x3de3f927	0.111315064
187	0x3e85bdd4	0.2612139
188	0x3eccef7d	0.40026465
189	0x3e55ca6c	0.20877999
190	0x3dd567d7	0.104201965
191	0xbdf0a125	-0.11749486
192	0x3e74021c	0.2382893
193	0x3e6cc9fd	0.23123927
194	0xbd5acff8	-0.05342099
195	0x3ea2557d	0.31705847
196	0xbd68c596	-0.056829058
197	0x3c85752a	0.01629122
198	0xbd639c5d	-0.05556904
199	0x3e430e01	0.19048311
200	0x3d20ed70	0.039288938
201	0xbd0fb984	-0.03508903
202	0xbe0a2cb9	-0.13493623
203	0x3daba741	0.083815105
204	0xbde3e8dc	-0.11128399
205	0x3e08c3be	0.1335592
206	0xbee70844	-0.45123494
207	0x3db896ba	0.09013124
208	0xbc9a2d18	-0.01882033
209	0xbe22af3d	-0.1588716
210	0x3e3be5af	0.18349336
211	0x3e0b5e2d	0.13610144
212	0x3deedeed	0.116636135
213	0xbde4d5c7	-0.11173587
214	0x3dea8e57	0.114529304
215	0x3d0a9373	0.033832025
216	0x3e891d84	0.2678033
217	0xbe11ed66	-0.14250717
218	0xbe02b1f2	-0.12763193
219	0x3e799c7b	0.24376099
220	0xbd2a5f62	-0.04159487
221	0x3e7836b1	0.24239613
222	0x3d5c5dbb	0.053800326
223	0x3e79d172	0.24396303
224	0x3e5845c2	0.2112036
225	0x3eb58b90	0.3545804
226	0xbd8115e5	-0.06303004
227	0x3dd01a7b	0.10161301
228	0x3dacb5e3	0.0843313
229	0x3e61fa44	0.22068125
230	0x3dd3e653	0.10346665
231	0xbd9b690c	-0.075883955
232	0x3deff69b	0.11716958
233	0xbbfc1f79	-0.0076941815
234	0xbdbaa3fc	-0.09113309
235	0x3e965fb1	0.29369882
236	0x3e1b42b1	0.1516216
237	0x3bfe4d31	0.007760667
238	0x3e06919f	0.13141488
239	0x3cf47984	0.0298431
240	0x3d18f6d1	0.037344757
241	0x3e2b2e1d	0.1671681
242	0xbbc13649	-0.005896364
243	0x3e4dcd2d	0.200978
244	0x3e4281bc	0.18994802
245	0x3e974d7f	0.29551312
246	0x3e2b6023	0.16735892
247	0x3df2d43f	0.11856889
248	0x3ae0d40d	0.001715304
249	0x3c6ddfdd	0.014518705
250	0x3e453d76	0.19261727
251	0x3eab5114	0.33460295
252	0x3e6a8d1b	0.2290539
253	0xbd041363	-0.03224505
254	0x3ddedf5b	0.108824454
255	0x3e05d2b8	0.13068664

arith.constant3 f4 [32]
0	0x3f2357ff	0.63806146
1	0x3dc9fe2e	0.09862934
2	0x3f46bd2a	0.7763239
3	0x3f10c40b	0.5654914
4	0x3f1545a5	0.58309394
5	0x3f088c50	0.533391
6	0x3e2d1d63	0.16905741
7	0x3f177a42	0.59170926
8	0x3e0ec8d9	0.13943805
9	0x3f1bcb9e	0.6085757
10	0x3da40dfa	0.08010478
11	0xbe25b1c7	-0.16181098
12	0x3cc0e698	0.023547456
13	0x3f1ec602	0.62020886
14	0x3f1adb9e	0.6049136
15	0x3e756603	0.23964696
16	0x3f19225b	0.5981805
17	0x3c60a860	0.013712019
18	0x3d72a765	0.05924167
19	0xbe02f5af	-0.12789033
20	0xbda4e169	-0.08050806
21	0xbc341af5	-0.010992755
22	0x3e68dbc2	0.22740081
23	0x3f18d891	0.59705454
24	0x3d45831a	0.04822073
25	0x3c10e7b0	0.008844301
26	0x3f1c1178	0.60964155
27	0x3e1586e1	0.14602233
28	0x3f1a6040	0.60303116
29	0xbe796ce5	-0.24357946
30	0x3d7e7e15	0.06213196
31	0xbe5d9a4a	-0.21640888

sequential_1_1/dense_3_1/BiasAdd/ReadVariableOp f4 [64]
0	0x3e73408a	0.23755088
1	0x3f099518	0.53743124
2	0x3ef676bf	0.4813747
3	0x3f01e9b6	0.5074724
4	0x3ef960ff	0.48706815
5	0x3e1071ea	0.14105955
6	0x3efea576	0.49735612
7	0x3d99ac82	0.075036064
8	0x3f0d0120	0.5507984
9	0x3ea6bd67	0.32566378
10	0x3c6564f0	0.014001116
11	0x3eb67482	0.35635763
12	0x3f0c113d	0.54713804
13	0x3ec427f3	0.3831173
14	0xbe0f49b7	-0.13992964
15	0x3e1d2a92	0.1534827
16	0x3ed02caa	0.40659076
17	0x3e5f93da	0.21833745
18	0x3ebce216	0.3689124
19	0x3ec52aa7	0.38509104
20	0x3eacf1c9	0.33778217
21	0xbe258e06	-0.16167459
22	0x3ef7b1e8	0.4837792
23	0xb9b5ab62	-0.000346507
24	0x3e25ae2e	0.16179726
25	0x3e729683	0.23690228
26	0x3ee1dcb7	0.44113705
27	0x3eccc87c	0.39996707
28	0x3ee31df5	0.44358793
29	0x3efdb45b	0.49551663
30	0x3ec62356	0.38698834
31	0x3ee4343d	0.44571105
32	0x3e42a071	0.19006516
33	0x3ebb2f21	0.36559394
34	0x3e39d52b	0.18147723
35	0x3d795cae	0.0608794
36	0xbda75a80	-0.081715584
37	0x3ed5cb72	0.4175678
38	0x3e5017ba	0.20321551
39	0x3f001303	0.5002901
40	0x3f1a4c77	0.60272926
41	0x3e861663	0.26188955
42	0xbad5ae2c	-0.0016302518
43	0x3f111dff	0.56686395
44	0x3ed504cf	0.4160523
45	0x3e27c587	0.16383944
46	0x3f30ba7b	0.69034547
47	0x3eecbbb5	0.4623696
48	0x3ef38b36	0.47567147
49	0x3f0fb7ab	0.5613963
50	0x3f0f37af	0.5594434
51	0x3ee274ec	0.4422983
52	0x3ac67b54	0.0015142956
53	0x3edf29f8	0.43586707
54	0x3eab207e	0.33423227
55	0x3f081032	0.5314971
56	0x3e97645a	0.2956875
57	0x3edeeaf0	0.43538618
58	0x3d192f6e	0.037398748
59	0x3e8db7a8	0.2767918
60	0x3d0b3a72	0.033991285
61	0x3edfce8b	0.43712267
62	0x3f22b388	0.6355519
63	0x3e6c7362	0.2309089

sequential_1_1/dense_3_1/MatMul f4 [64, 111]
0	0x3d69863c	0.05701278
1	0xbd2d7657	-0.042349186
2	0x3e06bfe5	0.1315914
3	0xbe2076ab	-0.15670268
4	0x3d9ca1ca	0.07648046
5	0xbe9ad944	-0.30243886
6	0xbeaa83f0	-0.33303785
7	0xbd40f62b	-0.047109764
8	0xbc9c5d4c	-0.019087456
9	0x3e5312ab	0.2061259
10	0xbe918dbb	-0.28428444
11	0x3e787112	0.24261883
12	0x3dc6d6ce	0.097089395
13	0x3c81511c	0.015785746
14	0x3e7ba795	0.24575646
15	0xbc50feda	-0.012756074
16	0xbeb58db0	-0.3545966
17	0x3e0d62d0	0.13807225
18	0x3d17e7ad	0.037086178
19	0x3e96a89c	0.29425514
20	0xbecef7aa	-0.40423328
21	0x3da74a37	0.08168452
22	0xbe35a833	-0.17739944
23	0xbcf7bb93	-0.03024081
24	0x3c5fa1fd	0.013649461
25	0x3e0a907f	0.13531683
26	0xbe3233c6	-0.17402562
27	0x3e50545c	0.2034468
28	0x3de6455c	0.11243698
29	0x3d53a305	0.05166914
30	0x3ca80a6f	0.020512788
31	0x3d40593e	0.046960108
32	0xbe11f157	-0.1425222
33	0x3e7b4ee4	0.24541813
34	0x3e9899a4	0.29804718
35	0xbdffa188	-0.124819815
36	0xbf23703f	-0.6384315
37	0xbca9e466	-0.020738792
38	0x3e157860	0.145967
39	0xbe2b0711	-0.16701914
40	0x3db9c972	0.09071626
41	0x3dc4ed67	0.096155934
42	0x3e4c0aa0	0.19925928
43	0x3dfc18f6	0.123094484
44	0xbe4f44a2	-0.20241025
45	0x3ddbcd67	0.10732537
46	0x3df37527	0.118875794
47	0x3ea48d33	0.32138976
48	0x3d5fa8fc	0.054604515
49	0x3e1cec22	0.15324453
50	0x3d889875	0.06669704
51	0xbe8322fe	-0.25612634
52	0x3e3b46e8	0.18288767
53	0x3ddb5f92	0.10711588
54	0x3dbdc76c	0.09266552
55	0x3d321f8c	0.043487117
56	0x3e1fa57c	0.15590471
57	0x3ed189ea	0.40925533
58	0x3dc4d8b8	0.09611648
59	0xbc7befce	-0.015376998
60	0xbc94b731	-0.018153759
61	0x3ec34835	0.38141027
62	0xbe25352a	-0.16133562
63	0x3e399385	0.1812268
64	0x3e217b83	0.15769772
65	0x3e1098b6	0.14120755
66	0xbeac0cb5	-0.33603445
67	0x3d3c8e98	0.046034425
68	0x3e0a5e99	0.13512649
69	0xbd9d7632	-0.076885596
70	0x3deabf2b	0.11462244
71	0xbe42fd99	-0.19042052
72	0xb9366a45	-0.00017396461
73	0x3c7eec64	0.01555929
74	0x3e671d36	0.22569737
75	0x3d938ecc	0.07204971
76	0xbd50fe3d	-0.05102371
77	0xbe23a243	-0.15979867
78	0xbe82df1c	-0.25560844
79	0xbd749214	-0.059709623
80	0xbdd33d4d	-0.103144266
81	0xbd8c0b58	-0.06838101
82	0xbd6be173	-0.057588052
83	0xbd69306f	-0.056930955
84	0xbd66797e	-0.056268208
85	0xbd09cd09	-0.033642802
86	0x3e137f12	0.14403942
87	0x3d82208c	0.06353864
88	0x3d2fa5d1	0.042882744
89	0xbea2cfe1	-0.31799224
90	0xbdfcbf63	-0.123411916
91	0x3dce5159	0.100741096
92	0x3d8405ad	0.06446395
93	0xbdf681f1	-0.12036503
94	0x3e4449e1	0.19168808
95	0x3d738f0e	0.0594626
96	0xbdc4e4b6	-0.09613936
97	0x3e40dff8	0.18835437
98	0x3da5c617	0.08094423
99	0xbeddf025	-0.43347278
100	0xbe084d3f	-0.13310717
101	0x3ce8313b	0.028343787
102	0x3c0a7052	0.008449631
103	0x3e89be63	0.26903066
104	0x3d60e99b	0.054910284
105	0xbd1fd3cf	-0.039020356
106	0x3cb7d012	0.022438083
107	0xbe80735e	-0.25088018
108	0x3e345f5e	0.17614505
109	0xbce3f716	-0.02782778
110	0x3e059d94	0.13048393
111	0x3def4e0d	0.11684809
112	0xbae14ed2	-0.0017189628
113	0xbe609660	-0.21932364
114	0x3e84df1d	0.25951472
115	0x3f0ecfeb	0.5578601
116	0xbc3ce251	-0.011528567
117	0x3e18dd94	0.14928275
118	0x3e945cda	0.2897709
119	0xbd169b7d	-0.03676938
120	0x3b9b6a0e	0.0047428673
121	0x3e22f16e	0.1591241
122	0xbed7ec80	-0.42172623
123	0xbd814773	-0.06312456
124	0xbd870d1b	-0.065942965
125	0x3cfadb2f	0.030622093
126	0xbe2ed9e5	-0.17075308
127	0xbc9dfeb2	-0.019286487
128	0xbcd347e2	-0.025791112
129	0xbd3d5704	-0.046225563
130	0xbe56fe47	-0.20995437
131	0xbede8669	-0.43461922
132	0xbcd5aa8a	-0.026082296
133	0x3d121ffa	0.035675026
134	0x3c5623f0	0.013070092
135	0xbe0084a0	-0.12550592
136	0xbe43e247	-0.19129287
137	0xbeb1cda1	-0.34727195
138	0x3dd00732	0.101576224
139	0xbebc75e4	-0.36808693
140	0x3d57d73e	0.052695505
141	0xbd1a80eb	-0.037720602
142	0xbe17a315	-0.14808305
143	0x3cfdde1f	0.030989705
144	0xbd4987ae	-0.04920166
145	0xbe1fd5d9	-0.1560892
146	0xbeba06c3	-0.36333284
147	0x3db0f74c	0.08640918
148	0x3e07ec0b	0.13273637
149	0xbe8bde51	-0.2731805
150	0x3d8cf1c4	0.06882051
151	0x3ccd7659	0.025080847
152	0xbd95eaef	-0.07320201
153	0xbd838c8e	-0.06423293
154	0xbda63300	-0.08115196
155	0xbe9531ec	-0.2913965
156	0x3d2f2a92	0.042765208
157	0xbd4bcd03	-0.04975606
158	0xbc9ab534	-0.018885233
159	0xbe65cb7c	-0.22440904
160	0xbe39f49f	-0.18159722
161	0xbc334297	-0.010941169
162	0xbe15bc35	-0.14622577
163	0xbe3a09f2	-0.18167856
164	0xbedbde69	-0.42943123
165	0xbe69d607	-0.22835551
166	0xbd314d4a	-0.0432866
167	0xbe0d45e7	-0.13796197
168	0x3e6d558c	0.23177165
169	0xbef80c0a	-0.48446685
170	0xbd9a9d58	-0.07549542
171	0xbe027e81	-0.1274357
172	0xbe10fb90	-0.14158463
173	0xbdf4b072	-0.11947717
174	0xbd785da3	-0.060636174
175	0x3e9a54f1	0.3014293
176	0xbe79dbdf	-0.2440028
177	0xbd9a390d	-0.07530413
178	0xbe53c4cf	-0.20680545
179	0xbdd4fb5b	-0.10399505
180	0xbdb93e58	-0.09045094
181	0x3e85d899	0.26141813
182	0x3e283066	0.16424713
183	0x3c41888c	0.0118123405
184	0xbe640651	-0.22268035
185	0xbe198527	-0.149922
186	0xbdb2542b	-0.0870746
187	0xbe81ab17	-0.25325844
188	0xbdb01405	-0.085975684
189	0xbe80daf4	-0.25167048
190	0xbd3d7165	-0.04625072
191	0xbd4673a6	-0.048450135
192	0xbd89a864	-0.06721571
193	0x3debf1cc	0.115207285
194	0xbca7c3e8	-0.020479158
195	0x3e7153c9	0.23567118
196	0xbcc712e0	-0.024300992
197	0xbe4865d6	-0.19570097
198	0xbd8422d4	-0.064519554
199	0xbe96ee8c	-0.29478872
200	0xbed499bc	-0.4152354
201	0xbe5356e4	-0.20638615
202	0xbd8e2d70	-0.0694226
203	0x3aec3489	0.0018021028
204	0xbe2b0350	-0.16700482
205	0xbe051c4b	-0.12999074
206	0xbdb6cd34	-0.08925858
207	0xbe9fe8cc	-0.31232297
208	0x3c44c84c	0.012010645
209	0xbe962cef	-0.29331157
210	0xbdcc2ad4	-0.09969106
211	0xbe037977	-0.12839304
212	0xbdffddbe	-0.12493466
213	0x3e3db1c3	0.18524842
214	0xbdad2096	-0.08453481
215	0xbe64aec6	-0.22332296
216	0x3db314c7	0.08744197
217	0x3da30ebc	0.07961795
218	0x3d364c4a	0.04450635
219	0xbe2e183a	-0.17001429
220	0x3e081654	0.13289768
221	0x3d2279b6	0.039666854
222	0xbacd546c	-0.0015665418
223	0x3e263cba	0.16234103
224	0x3d349723	0.044089448
225	0xbe9af9b9	-0.30268648
226	0x3e92593d	0.28583708
227	0xbccf324c	-0.025292538
228	0xbdbce5ba	-0.09223504
229	0xbe050c04	-0.12992865
230	0xbe1c8787	-0.15286075
231	0xbd6c262f	-0.057653602
232	0xbe21ede6	-0.15813407
233	0x3ea75bda	0.32687265
234	0xbb401137	-0.0029307136
235	0xbdafd522	-0.08585574
236	0x3db6b994	0.08922115
237	0xbd36e3d9	-0.044650886
238	0xbe43a065	-0.19104154
239	0x3e59cbb5	0.21269114
240	0x3e1ede6c	0.15514535
241	0xbcc4a621	-0.024004998
242	0xbd8dcafb	-0.06923481
243	0xbe9c3db6	-0.30515832
244	0xbe49fe38	-0.19725883
245	0x3cf9dffb	0.03050231
246	0x3d98495c	0.07435867
247	0xbd1176fa	-0.035513856
248	0xbdffbca0	-0.12487149
249	0xbe1e7df4	-0.15477735
250	0xbc5f52ac	-0.01363055
251	0xbea472c1	-0.321188
252	0x3c49a1c4	0.012306634
253	0x3e0d4adb	0.13798086
254	0x3eb92991	0.36164525
255	0xbe1f1f4e	-0.15539286
