tiny_dnn_edge_impulse.tflite (tflite, 14112 bytes, 3 tensors)

tfl.pseudo_qconst1 i1 [1, 32] scale=0.01155021 zero_point=0
000000 24 14 dc 18 13 05 af 86 8c 1e 26 81 9b 10 d1 95
       0.41580757 0.23100421 -0.41580757 0.27720505 0.21945399 0.057751052 -0.935567 -1.4091257 -1.3398244 0.3465063 0.43890798 -1.4668767 -1.1665713 0.18480337 -0.5428599 -1.2358725
000010 03 ae 05 d2 26 a9 06 d9 10 0b 21 e2 0f 20 23 08
       0.03465063 -0.94711727 0.057751052 -0.53130966 0.43890798 -1.0048683 0.06930126 -0.4504582 0.18480337 0.1270523 0.38115695 -0.3465063 0.17325315 0.36960673 0.40425736 0.09240168

tfl.pseudo_qconst3 i1 [32, 64]
000000 5f 2b d2 dd 57 30 49 0b 01 00 4a 64 20 36 46 de
       95 43 -46 -35 87 48 73 11 1 0 74 100 32 54 70 -34
000010 2d ca 35 3b fc 26 30 e3 91 f0 8a 44 df 28 08 43
       45 -54 53 59 -4 38 48 -29 -111 -16 -118 68 -33 40 8 67
000020 3a 7f ba 3b 98 56 ca 36 0f d5 23 5b 28 19 0d d9
       58 127 -70 59 -104 86 -54 54 15 -43 35 91 40 25 13 -39
000030 28 3a 66 2c 1b bd 20 18 4f 47 52 67 b2 fc bf d7
       40 58 102 44 27 -67 32 24 79 71 82 103 -78 -4 -65 -41
000040 39 06 ed e5 1a 38 f1 dc bf 55 d2 5b ef 60 c7 1f
       57 6 -19 -27 26 56 -15 -36 -65 85 -46 91 -17 96 -57 31
000050 ca 34 a0 25 7f 14 e2 08 e0 22 d9 1c cb 0f 09 5c
       -54 52 -96 37 127 20 -30 8 -32 34 -39 28 -53 15 9 92
000060 d7 2a eb 2e a9 ff 6b 51 4f 32 4e 28 cc 12 3b 53
       -41 42 -21 46 -87 -1 107 81 79 50 78 40 -52 18 59 83
000070 c0 2b fa bc 03 6b 6a 5e f9 f3 4a fe 19 37 51 b3
       -64 43 -6 -68 3 107 106 94 -7 -13 74 -2 25 55 81 -77
000080 cf ce 40 16 2e ae 4f 2a ff 26 28 10 0c 08 10 14
       -49 -50 64 22 46 -82 79 42 -1 38 40 16 12 8 16 20
000090 0d d0 15 d6 10 cb d9 3f 2b eb 11 e6 f4 10 ca 17
       13 -48 21 -42 16 -53 -39 63 43 -21 17 -26 -12 16 -54 23
0000a0 1a b7 49 fa 4b f6 e1 06 cd 31 09 3e ce 81 e0 28
       26 -73 73 -6 75 -10 -31 6 -51 49 9 62 -50 -127 -32 40
0000b0 dd 1a de a1 f8 c2 e4 f5 ea f3 fe 44 fb ee d9 ea
       -35 26 -34 -95 -8 -62 -28 -11 -22 -13 -2 68 -5 -18 -39 -22
0000c0 d7 1f 07 cf 42 c0 f3 ed 4e e8 f8 13 13 f3 e4 60
       -41 31 7 -49 66 -64 -13 -19 78 -24 -8 19 19 -13 -28 96
0000d0 e2 4e fe 08 2b ef 0e c8 22 40 f4 f5 d0 64 56 ed
       -30 78 -2 8 43 -17 14 -56 34 64 -12 -11 -48 100 86 -19
0000e0 c9 07 48 0f 29 a4 c0 f7 43 0d da 4f 33 f6 ed e9
       -55 7 72 15 41 -92 -64 -9 67 13 -38 79 51 -10 -19 -23
0000f0 4c c9 2e 01 23 e9 f2 10 55 65 15 e7 39 01 ff 81
       76 -55 46 1 35 -23 -14 16 85 101 21 -25 57 1 -1 -127

tfl.pseudo_qconst5 i1 [64, 111]
000000 17 f4 b7 0a 0b 7f 6b e6 f7 14 ea 09 e6 0f cd 19
       23 -12 -73 10 11 127 107 -26 -9 20 -22 9 -26 15 -51 25
000010 f6 d1 12 f7 f4 35 0b d8 55 ed ea e6 d8 ff 13 df
       -10 -47 18 -9 -12 53 11 -40 85 -19 -22 -26 -40 -1 19 -33
000020 09 0f c4 ea d5 cf d2 c5 18 ff c5 ef ef da 21 db
       9 15 -60 -22 -43 -49 -46 -59 24 -1 -59 -17 -17 -38 33 -37
000030 01 ee ed e5 23 4e f9 0c f8 4b 07 1b fd e8 f6 dc
       1 -18 -19 -27 35 78 -7 12 -8 75 7 27 -3 -24 -10 -36
000040 04 ba e1 2a e3 e4 f5 dd 1d f1 d1 0a d3 d7 ca de
       4 -70 -31 42 -29 -28 -11 -35 29 -15 -47 10 -45 -41 -54 -34
000050 8d e4 e0 11 ef cf f5 e8 37 0d f2 de 16 13 f0 b9
       -115 -28 -32 17 -17 -49 -11 -24 55 13 -14 -34 22 19 -16 -71
000060 db 00 16 aa 17 f5 d2 02 e4 f0 e0 d5 d2 eb 00 0f
       -37 0 22 -86 23 -11 -46 2 -28 -16 -32 -43 -46 -21 0 15
000070 00 d4 19 fb 2a 51 e0 de db f2 f2 e2 05 14 fd 37
       0 -44 25 -5 42 81 -32 -34 -37 -14 -14 -30 5 20 -3 55
000080 ed e8 b0 20 27 1c fa 2c fd 32 1c 2d 11 f8 4a cf
       -19 -24 -80 32 39 28 -6 44 -3 50 28 45 17 -8 74 -49
000090 f5 04 17 fb 30 37 2f 3e f4 10 a1 07 1c 1a 46 16
       -11 4 23 -5 48 55 47 62 -12 16 -95 7 28 26 70 22
0000a0 2a 0a fa 01 21 02 3e d3 39 01 7f 3c 39 14 3c da
       42 10 -6 1 33 2 62 -45 57 1 127 60 57 20 60 -38
0000b0 13 23 1f 32 20 58 40 01 2e 2b 1f 19 15 19 f2 1a
       19 35 31 50 32 88 64 1 46 43 31 25 21 25 -14 26
0000c0 10 dd 2b 20 2c 00 2f 2e d8 5d 2e 26 1c 71 25 05
       16 -35 43 32 44 0 47 46 -40 93 46 38 28 113 37 5
0000d0 2e 9f 1a 1c 30 0a 1c 35 10 4b 0e 18 2b 2b 1a ff
       46 -97 26 28 48 10 28 53 16 75 14 24 43 43 26 -1
0000e0 3f 02 0c 81 df 05 03 ff d2 08 f2 10 1b f6 38 dd
       63 2 12 -127 -33 5 3 -1 -46 8 -14 16 27 -10 56 -35
0000f0 15 d3 00 17 2e 19 dd d4 29 e3 b3 4b 04 17 02 20
       21 -45 0 23 46 25 -35 -44 41 -29 -77 75 4 23 2 32
